12) feedforward-nn/mnist-feedforward.pth (torch, 103511 bytes, 4 tensors)

linear1.weight f4 [32, 784]
00000000: 8093 e5bb ae4b a53c c896 9f3c 80b3 d5b9
00000010: 53b6 cebc bce0 3a3c ea37 be3c dd22 053d
00000020: 0e9e 02bc 0663 5cbc a8b5 283c 272a 073d
00000030: ec15 50bb d758 0dbd c525 e6bc fbbb ccbb
00000040: c381 86bc d199 0e3d 1446 423c 18d1 883b
00000050: c086 ae3a 3a8f 8bbc 58da e5bc b561 eabc
00000060: 98f4 293c 5460 07bd 0448 203c 329d 13bc
00000070: 5cb8 8dbc a4c7 003c 20e5 a73c e4ee 0e3c
00000080: 6c35 dcbc a794 c93c dbdb e93c d89b e6bc
00000090: 82b5 0cbd 4c2c 0a3d 447f d2bc 187f 5a3c
000000a0: 1214 9c3c e443 0bbc b31c f9bc 6df6 a03c
000000b0: f4c8 34bd 6d6a 5dbc 3e13 903c c13b 923c
000000c0: 792f c13b 7ccf cabc 0bc4 84bc 8318 a2ba
000000d0: 8085 6b3b 9e3b 8d3c 20d1 2c3b acea 99bc
000000e0: 8ce5 eabc 4b45 043d 04f7 8a3c 0495 943c
000000f0: e602 1fbb 8c5c 31bc f339 f23c 1d5e c9b9
00000100: ce7e dc3c 3ada 3d3c 855b b93c c7af d13b
00000110: 9f92 7739 4503 cfbb 0eb6 733d 2a35 1f3c
00000120: 343d 3c3c 79bb 323d 776e 203d 0ef6 ec3c
00000130: dd1f 0abc 02e8 f5ba 1943 0c3c e0a4 b63c
00000140: 4ed1 be3c 2ead ef3c 885d bc3b d02f 87bb
00000150: c8a9 d3bc 78af 6bbc beb5 ee3c 8acb c1bc
00000160: d6c8 d83c 2c04 b7bc 8726 27bc cd82 243d
00000170: f1a0 1e3d 2be4 df3b 96ae 43bc 172f 833c
00000180: ec68 0bbd 2978 15bd ca42 bfbd 17e8 0dbe
00000190: 3e7c a8bd 7ed1 aebd a986 833b 141d fabc
000001a0: e05b 4c3d 8867 8d3d 7c35 e63c 969c 18bb
000001b0: a700 f9bc c1e8 c0bc 9d70 cd3c 64bf 873c
000001c0: 083c 4f3c 0885 823c 43de 843b d58f 323c
000001d0: 43cc 61bb e992 fcbc c6ad f5bc 93d4 30bc
000001e0: 48d2 ffbc 4910 06bd 9e48 20bd 74a5 6e3c
000001f0: 9bed 5c3c f392 36bc 3d43 22bc 16d6 82bd
00000200: a9a7 9e3d ad6b c83d 4493 6dbc f8ef 2e3d
00000210: fa9f 863c 0693 403c 573f 933c d97c ac3d
00000220: a00c a63d 2b1c 593d 7442 673c 328e fa3b
00000230: a7eb 063d 60f8 0f3c 1899 633b e863 3a3c
00000240: 24ce 9dbd 1289 09be feee e9bd 14d8 32bd
00000250: 2e65 19bd 468e 8e3d 4b5c bc3d 10ea c33d
00000260: 85bb ce3d 6e7a 3fbd 1c0c 89ba 4463 05be
00000270: 6551 80bd 6f6e de3c fca9 43bd aea1 d83c
00000280: 217c 39bc 9c9d 3b3d b79b e33c a78b cc3d
00000290: e91d 003e 8c92 b23c 507e 40bc 4e4e b4bc
000002a0: 54ac 113c 6ea7 983c 8eb9 a9bb 7dc9 2fbc
000002b0: fa27 a8bd f2ba edbd 4cce 0cbe b06b 9ebc
000002c0: 8daa 373d 3d1a 1b3d 4533 433d f679 4b3d
000002d0: 72d1 223d 275c 9fbd 17ab d5bd 059d d6bd
000002e0: 470f 07be 1527 3a3d 1961 0fbe 5cd3 493c
000002f0: 3d25 f43b 1fb2 9bbc ebb5 003e c957 413e
00000300: 2913 1c3e d6ca 833c e9c6 fc3b 427f aabc
00000310: 3746 933c d55d cab9 f1e0 a9bb 20b1 c8bc
00000320: 81d5 01be f4d0 91bd 208c c6bd 441f 96bc
00000330: 1c53 c33d a41e ef3d c347 fd3d 70a4 a9bd
00000340: fa02 0ebe fba1 babd f307 ecbc f328 d73d
00000350: af26 763c 8f99 473d be0b d43b 2815 fdbc
00000360: fcad 5dbd c0a6 883d 3605 2b3e a567 523e
00000370: e08e 0e3e 84fb 343d adf1 7fbb e6fc d8bb
00000380: 5148 cdbc f4a3 c83b 928e ca3c eb31 85bd
00000390: 5147 03be 65e0 393c 7c50 983d 1d3b c23d
000003a0: 87d8 093e 61c4 7e3e b9a4 9a3d 7752 28bd
000003b0: 1e3d 14be 89db 76bd 7129 33bc 1072 edbc
000003c0: f09b 58bd d762 1bbd a535 4dbd 82df a5bc
000003d0: 20eb 98bb b6d4 a13d 46e3 853c 09fb 843d
000003e0: 7e89 cf3d 4b70 cd3d b9ae 5fbb 7706 a93c
000003f0: 25c4 013c 8472 9fbc 41f7 893c 8bdb c8bd
-0.0070061088 0.020177688 0.019481078 -0.00040760264 -0.025233423 0.01140612 0.023220021 0.03250395
-0.0079722535 -0.013451343 0.0102972165 0.032999184 -0.0031751348 -0.034508552 -0.028094182 -0.006247995
-0.016419297 0.03481466 0.011857528 0.0041753165 0.0013315305 -0.01703607 -0.028058216 -0.028611043
0.010373257 -0.03305085 0.009782795 -0.009009646 -0.017299823 0.007860098 0.020494998 0.008723948
-0.026880942 0.024607016 0.028547218 -0.028150484 -0.034352787 0.03373365 -0.02569545 0.013335966
0.019052539 -0.008500073 -0.030409193 0.019648755 -0.044136956 -0.013514143 0.0175873 0.017850759
0.0058955518 -0.02475714 -0.016206762 -0.0012366924 0.0035937726 0.017240342 0.0026369765 -0.018788658
-0.02867391 0.032292645 0.01696349 0.018137462 -0.0024263202 -0.010825288 0.029568648 -0.00038407827
0.026915934 0.011587674 0.022626648 0.006399128 0.00023610376 -0.0063175284 0.059499793 0.009717265
0.011489201 0.04363582 0.039167847 0.028925922 -0.008430448 -0.001876116 0.008560919 0.022295415
0.023293164 0.029257383 0.0057484545 -0.0041255727 -0.025837794 -0.014385097 0.029139396 -0.023656625
0.026462954 -0.022340856 -0.010202057 0.040163804 0.038727704 0.0068326197 -0.01194348 0.016013665
-0.03403561 -0.036491547 -0.09338911 -0.13858066 -0.08226822 -0.08536051 0.0040138555 -0.030531444
0.049892306 0.06904513 0.028101675 -0.0023286692 -0.030395819 -0.023548486 0.025078112 0.016570754
0.01264859 0.015932575 0.004054816 0.01089855 -0.0034454025 -0.030831771 -0.029990088 -0.010792869
-0.0312282 -0.032730374 -0.039131753 0.014565814 0.013484384 -0.011143434 -0.009903726 -0.0638849
0.077468224 0.097861625 -0.014500443 0.04270932 0.016433705 0.011753803 0.017974539 0.0842225
0.08107877 0.05300538 0.014114965 0.0076463455 0.03293958 0.008787245 0.0034728702 0.011376359
-0.07705334 -0.13431194 -0.11422537 -0.0436631 -0.037450008 0.0696073 0.09197291 0.09566128
0.1009436 -0.046747617 -0.0010455879 -0.13026148 -0.06265525 0.027152268 -0.04776953 0.026444282
-0.011321099 0.045804605 0.027784212 0.09987574 0.1251141 0.021798395 -0.011748865 -0.022009995
0.008891184 0.018634524 -0.0051795905 -0.010729191 -0.0821075 -0.116079226 -0.13750571 -0.019338459
0.044840384 0.03786682 0.047656316 0.049676858 0.039750524 -0.077812485 -0.104330234 -0.10479168
-0.13189422 0.045447428 -0.14001884 0.012318458 0.007450728 -0.019005833 0.12569396 0.18881144
0.15241684 0.01608793 0.0077141416 -0.020812634 0.017977817 -0.00038598353 -0.005184286 -0.024498522
-0.12679102 -0.07119933 -0.096946955 -0.018325455 0.09537336 0.11675766 0.12367203 -0.08283317
-0.13868323 -0.091129266 -0.028812384 0.10505857 0.015023871 0.04873043 0.0064711263 -0.030893877
-0.054121003 0.0667243 0.16701207 0.2054735 0.1392169 0.044185176 -0.0039053962 -0.0066219447
-0.025058897 0.0061230604 0.024726186 -0.06503662 -0.12820174 0.011345004 0.07437226 0.09483931
0.13461505 0.248796 0.075509496 -0.04109427 -0.1447644 -0.06026796 -0.010935173 -0.028985053
-0.05288309 -0.037936058 -0.050099988 -0.020248178 -0.004666701 0.079018995 0.016343724 0.06493194
0.101336464 0.10031184 -0.0034131242 0.020632965 0.0079203 -0.019463785 0.016841533 -0.098074995

linear1.bias f4 [32]
00000000: 1d25 bcbd 9231 943e c7e5 3c3d 693a c5bc
00000010: 53b1 063f b41c 523d 74a0 6c3d d803 9f3d
00000020: 352b 28be 7f9d db3e 0634 bebe 6346 793e
00000030: c69b 993e cefc 243e 1632 bdbd 66e9 713b
00000040: 390a 1cbe 6632 b13e 112e 923c ad14 803d
00000050: be6c 32be 73ae 02be 376b a63e cf69 483e
00000060: 8d55 033e c5ef f83d f9a7 423e 0acd cc3d
00000070: a308 99bd 7a0a 0e3d 0dcb b63e c318 f43c
-0.09186766 0.2894407 0.04611757 -0.024075704 0.52614325 0.051296905 0.057770208 0.07764405
-0.16422732 0.42893597 -0.37149066 0.24343257 0.30001658 0.16112062 -0.09238069 0.0036912798
-0.15238275 0.34608763 0.017844232 0.062539436 -0.17424294 -0.1276186 0.32503673 0.19571613
0.12825604 0.121551074 0.19009389 0.100000456 -0.074723504 0.03467796 0.3570179 0.029796964

linear2.weight f4 [10, 32]
00000000: 82c8 eabe c241 3fbe 8b00 77be 55b4 00bf
00000010: a62a 4f3d 52bc 49bf bae5 39be 28a5 42bf
00000020: 876f 6fbf f813 b5be 6010 2dbe 2e96 45bf
00000030: d52d 383e f40e 753e d82f a4be 467b a1bd
00000040: 7413 85be 036c bb3e 70cf 733f 85d8 bdbe
00000050: f107 343f d1f2 c53e 647f b0bc 0096 e1bd
00000060: 4da4 2a3f 8bb3 e93e 5b8b 0a3f 407c 603f
00000070: c58f 833d b1c3 82bc 3f47 73be d490 04bd
00000080: f668 f8be d974 863e e2db 09bf c9a8 3e3f
00000090: 99a5 adbd 2c7c 14bf ec58 823f a1c6 d73d
000000a0: d04b 97be 26cd 33be 0525 ebbd 20bc 16be
000000b0: 4222 803e f04b 00be cd39 1c3f d2ca 2a3e
000000c0: ecb1 473f 2c1b 46bf 3be8 81be 73a5 9e3e
000000d0: 6c69 4bbf e58f 0abf 389f 923f 8da9 3e3f
000000e0: 916b 863d 1d7f cfbe 2c3b ee3e 721d c2be
000000f0: f474 8b3e 0996 f1be c6d4 763d 464a a83e
00000100: 91de 01bf 0ef0 99bf 5016 3a3f 3eab fa3e
00000110: a147 9f3e 82d3 74bf 54f2 f2bd e785 473f
00000120: c23f 27be 6110 083e 3ff3 6b3f ffb7 e53e
00000130: 4c17 4a3f 19e1 53be 1422 efbd 3baa 7bbe
00000140: 747d d8be 1de3 803e 1dc5 1a3f 21de c1be
00000150: 2231 fe3e 779b a73d 7b8b 37bf 4f72 753e
00000160: c7c7 0c3f 9f85 22bf bfb2 973f f4c4 71bf
00000170: f825 eebe c846 36be 26d9 9f3e cb81 7d3e
00000180: a25c 18bf 6299 92bf c0e4 653f d962 9c3e
00000190: e27c 543e b46a 833f 5dd3 103d 1914 2a3f
000001a0: 5b66 833f d5b4 79be d2f1 5a3f 66ae 143c
000001b0: f96d a0be e069 86be 0f56 663f 9712 1bbf
000001c0: 1d76 143f 6fa6 00be 349f 30bb 5f2a bfbd
000001d0: decf c63e 34cb 36be e837 c2bd c4a5 90bf
000001e0: f708 7ebf 79cb 003f 9d0c 93be d813 83bc
000001f0: 3a20 afbe ac4b a63d 80b3 09bf a8f0 aabe
00000200: 11b7 1a3f 49fc 563e 108e 50bf 626c d93e
00000210: fbff 60bf cd26 6a3f 0c40 8e3e ab03 4abf
00000220: ba46 133d 1d60 67bf 32e3 b8bf 2c36 303f
00000230: ad3a a23e aa6a 9b3d 01fe 903d 81b8 273f
00000240: 3178 033f 2774 b83d 4a4b ae3c 2c1d fd3e
00000250: 1a82 9ebf 5e38 193e 4e20 82bf 593c f0bb
00000260: 7e0a 1d3f eda2 c03e 10d8 e1be cc7a 97be
00000270: 787d 703f 9d9d 10be 2e68 2b3f ed47 d9be
00000280: e9a7 d63e 6791 303f d8a6 983e 204c a1bf
00000290: 2aec d4be 89e5 733f c427 6dbc d839 a73e
000002a0: 4a82 8a3f 228a 9b3f bd25 f6be d2ff c33e
000002b0: c176 f83e b00f 853e b6f5 ca3e 26d8 ab3d
000002c0: 52f0 4abf e449 113f bf63 7cbe 3b30 2fbf
000002d0: a4e2 d03c 86e5 8fbe a259 6e3f ea1c d03e
000002e0: 6bb8 bfbe 6959 5bbe 7440 773e 917e afbe
000002f0: 99ef e53e 8211 423f f8cd a3bf 0fb2 02bf
00000300: 5d55 513d cd04 8e3f ea94 88bf 29cd d4be
00000310: 77de 503f 1c39 3bbf 9430 d9be d5ae 1a3e
00000320: dca0 94bf 8057 edbd 3341 1bbf 6cdf bdbe
00000330: 9445 3fbe 7a9d 81bf 329f d3be c4ab 803e
00000340: 6f91 043e 489a 833f 729e 483f bd44 2ebf
00000350: cd1a 1e3e 4705 183f d253 493f cab5 9d3d
00000360: 1456 eabe ca50 14bf 838b d23d 3dbb a23e
00000370: 4699 42be 8d84 05bf 0546 1f3e 143f 583e
00000380: 9a84 72be c40c 26bf 84d1 333f 81e2 263e
00000390: dd9d 033f 7acd 973e cfaf 353f 2cba ad3e
000003a0: 2b8d 3cbf 4348 293f 384f 043f 7dac 0ebf
000003b0: db50 96be 615b 003f 8a2f c2bd 4eb9 9b3e
000003c0: 43e7 8ebe 50b7 1cbe 74b1 b3be 5c14 1cbe
000003d0: 32eb 02bf 5d80 9ebf 0b83 b4bd df0e e13e
000003e0: 1c06 043f e9be dd3e f7ac 863e 5f81 1b3f
000003f0: 2d26 9fbd 4928 b9bd 2886 583f 12ff dabe
-0.458561 -0.18677428 -0.24121301 -0.50275165 0.050577782 -0.7880298 -0.1815404 -0.7603326
-0.9352955 -0.35366797 -0.16900778 -0.7718228 0.17986234 0.23931485 -0.32067752 -0.07884841
-0.25991404 0.36605844 0.952384 -0.37079254 0.7032462 0.38661817 -0.02154512 -0.11014938
0.66656953 0.45644793 0.5411889 0.8768959 0.06423906 -0.015962454 -0.23757647 -0.03236468
-0.4851758 0.26261023 -0.5385114 0.74476296 -0.08478851 -0.5800197 1.0183387 0.10535932
-0.29550028 -0.17558727 -0.1148167 -0.14720201 0.25026137 -0.12528968 0.61025697 0.16678932
0.7800586 -0.7738521 -0.2537249 0.30985603 -0.79457736 -0.54125816 1.145484 0.74477464
0.065634854 -0.40526667 0.4652952 -0.3791309 0.27237666 -0.4718478 0.06026151 0.32869166
-0.50730234 -1.2026384 0.72690296 0.48958772 0.31109336 -0.95635235 -0.11862627 0.77938694
-0.16332915 0.13287498 0.9216804 0.4486694 0.789418 -0.20691337 -0.11676422 -0.24576657
-0.42283213 0.25173274 0.6045702 -0.37864783 0.4964686 0.081839494 -0.71697205 0.23969387
0.54992336 -0.6348514 1.1851424 -0.9444115 -0.46513343 -0.17800438 0.3122036 0.24756543
-0.59516346 -1.1453059 0.8980217 0.30544165 0.20750764 1.0266938 0.03535782 0.66436917
1.0265611 -0.24385388 0.8552524 0.009074783 -0.31333902 -0.2625265 0.89975065 -0.6057524
0.57992727 -0.1256349 -0.0026950361 -0.093342535 0.38830465 -0.17850953 -0.094833195 -1.1300588
-0.9923243 0.50310475 -0.2872056 -0.016000673 -0.34204274 0.08119902 -0.5378952 -0.3338673
0.6043559 0.20994677 -0.8146677 0.42465502 -0.87890595 0.91465455 0.2778324 -0.78911847
0.035956122 -0.9038103 -1.4444335 0.6883266 0.3168539 0.07588704 0.070796974 0.65515906
0.5135527 0.09006529 0.021276135 0.4943632 -1.2383454 0.14962909 -1.0166109 -0.0073314128
0.61344135 0.37624303 -0.44110155 -0.29585874 0.9394145 -0.14122625 0.6695584 -0.42437688
0.4192498 0.68971866 0.29814792 -1.2601357 -0.4158643 0.9527212 -0.014474813 0.3266132
1.0821011 1.215153 -0.48075667 0.38281113 0.48528102 0.2598853 0.39640588 0.083908364
-0.7927295 0.56753373 -0.24647425 -0.6843297 0.025498696 -0.281048 0.9310552 0.4064706
-0.37445387 -0.21420826 0.2414568 -0.3427625 0.4490936 0.75807965 -1.2797232 -0.51052946
0.0511068 1.1095215 -1.0670445 -0.41562775 0.81589454 -0.73134017 -0.42419875 0.15105756
-1.161159 -0.11588955 -0.6064636 -0.3708452 -0.18678886 -1.0126183 -0.41332394 0.25131047
0.12946104 1.0281458 0.7836677 -0.68073636 0.15439911 0.5938305 0.78643525 0.07700689
-0.45768797 -0.57935774 0.10280516 0.31783476 -0.19003782 -0.5215538 0.15554054 0.21117812
-0.23683396 -0.6486323 0.7024157 0.16297342 0.51412755 0.29648954 0.7097139 0.339311
-0.73652905 0.6612589 0.5168338 -0.55731946 -0.29358563 0.50139433 -0.094817236 0.30414814
-0.27910814 -0.15304303 -0.35096323 -0.15242141 -0.5114013 -1.2382923 -0.08814057 0.43956658
0.5157182 0.43309715 0.26303837 0.6074428 -0.07770953 -0.09040887 0.84579706 -0.42772728

linear2.bias f4 [10]
00000000: 90ab 8bbe 48cd 5ebc 8410 12be ad08 1abe
00000010: 4628 d93d c292 913e 1080 02be 3886 66bd
00000020: 470a 353e 4a07 303e
-0.2727933 -0.013598748 -0.14264113 -0.15042372 0.10603385 0.2843228 -0.12744164 -0.056280345
0.17679702 0.1719028
