11) logistic-regression/mnist-logistic.pth (torch, 32503 bytes, 2 tensors)

linear.weight f4 [10, 784]
00000000: 0ac6 b93b 0e8c b53c f51e b4bc a1a9 303c
00000010: 4a04 283a 0e57 39bc 01b0 af3a 4a6a 8d3b
00000020: bfbe 00bd 6ece c73c 2a8c b1bc a58d 0abc
00000030: 15ae c0bc 33fc 013d 051e 003d 3689 c43c
00000040: a1c2 41bc 811e 593b 354b c03c 73ef 5bbc
00000050: f531 c3bc c2cd 073d ee1e 843c 6e25 4eba
00000060: 0366 0b3d f07a 97bc 957b b2bc 13bb 823c
00000070: 8e33 2a3c 086a 01bd 6ead 0a3b 4cdf e7bc
00000080: 79f9 c13c 3d71 423c 5fc3 eebc e061 dbbc
00000090: 41ed 003d 7e0e 973c ef40 523b 129a 673c
000000a0: de4b 023c 7262 f23c 2eea c13c ef3a f5bc
000000b0: c8d8 2fbc 3afe b5bc 3402 6cbc bd3a 983c
000000c0: c584 aebb 0da8 62bc 5518 a83c 4cf2 d4bb
000000d0: 4eff b83c f7a4 933b 9aa9 e6bc 5c45 2cbb
000000e0: 1d48 0d3d 8a51 eb3b 1ccd 8b3c 8e24 cdbb
000000f0: 88e9 923b 618a debb 045c 133b e3aa f1bb
00000100: 11ea 67bc 28db 66bb 11f6 013d 1504 913b
00000110: 9e1b 05bd 2559 d2bc 164f b83c 4a26 f2bc
00000120: aefc 7a3c e9c5 703c 0273 023c 159a 833b
00000130: 63b6 163c e086 00bd ebd1 6d3b 05d7 ddbc
00000140: 0002 bbbc 0815 8b3c 2ad2 ec3c ee18 eabc
00000150: 4af8 9f3b 7dda 0abd b1d1 b3bc 5755 c83c
00000160: 88d2 0cbd 35b6 90bc 02e3 42bc 93d4 583c
00000170: 69af 35bb a14c e3bc f414 99bc 99ac f03b
00000180: 52e1 2d3b 4618 0dbd 18e4 9c3c 99c1 efbc
00000190: 555d 91bc 93b8 c1bc 3791 31bd f4d2 b6bc
000001a0: f80e 41bc d653 e83c 3dc0 013d 1745 723c
000001b0: 91cd aa3c e505 e83b 503f cbbc 7ad9 0b3d
000001c0: 158a 03bd 1981 79bc cb0b e3bc d893 983b
000001d0: 73ef f6bc 80ed 583c 5fcb fd3b 0707 1d3b
000001e0: dd6a c5bc cbd4 333b 9f77 4e3c bd31 2ebd
000001f0: ea03 d9bc cb5d e1bc cb3e 09bd 17d6 883c
00000200: 5d70 113d 7f9b 47bc 8655 c23c c506 24bc
00000210: 8e1d 913c 636b 823b b021 193b d85f 7ebc
00000220: 4e69 803c ae56 20bc 92a0 7c3c b6e5 07bd
00000230: 1c84 c63c 83e0 b53c 97bb 0abd 26de 473c
00000240: e4a2 09bd 3412 ed3c c3b8 813c 21cd 00ba
00000250: 6080 183c b095 6abc c326 5cbc 028a a1bc
00000260: 0f72 dc3c 4349 323b 85ab 1a3d 69f6 3b3d
00000270: a5a0 823c 93ce 183d db38 0b3c e80f 153d
00000280: ab40 c63a 39d5 dc3c 0488 7e3c edc1 afbc
00000290: c4ac 2fbc 6a14 043d 2b63 563c 92f3 cb3c
000002a0: 6e46 04bc 1418 a83c e16f 463b a4d7 ebbc
000002b0: 03f3 62bc 3cf5 8a3b 064e 68bc b183 96bc
000002c0: 153f 6dbb f9c9 32ba bd84 783b 61a9 0fbd
000002d0: c4e0 263b 8d80 b439 9748 483d c030 333d
000002e0: 841e d43c a55b a03d 9815 953d b0e8 373d
000002f0: 4c8d 3abc ae0e 12bc 326b b2bb 318f 7fbc
00000300: 685b 93bc 24bb d73c 1b90 86bc 5a7c 99bc
00000310: ee49 843c 9abd 84ba 7a19 053d 336f c03b
00000320: 102c 593b b51b efbc 75cb 903c 9eed 13ba
00000330: 58d5 57bd 7e1d cd3a db6c 21bd eae1 0cbc
00000340: 89ce 6e3c 37ce c93c 3f1d 063d faa8 413d
00000350: 1c5c 803d 62e8 9e3d 0a9f 913d f718 5a3d
00000360: 62f8 a2ba c923 a13b 9d44 b2bc c53c 9ebc
00000370: 41c4 b03b 22e7 e5bb bcff 3c3b e491 11bd
00000380: 532a 8fbc 6b77 c33a e9d8 043d fd6d 1b3c
00000390: 5f7a 8bbb a25f 24bd 621d 8dbc 2a1a 1ebd
000003a0: 0368 48bd 0e80 72bc 8ab4 de3c dcb8 86bc
000003b0: 48a8 083d baaf 633d f0ce 4b3d 7509 81bb
000003c0: 8686 d93c 0a22 0d3d 4fc4 dc3b eb62 a83d
000003d0: 8ff9 ac3d 4415 8d3c 70e6 debb e914 e23c
000003e0: 5022 463b b0f5 b5bb a43a 53bc d6bc a53b
000003f0: 7f14 d3bb d891 c5bc 7b25 95bb e6cb e6bc
0.00566936 0.02216151 -0.021987418 0.01078263 0.00064093305 -0.011312259 0.0013403894 0.004315649
-0.03143191 0.024390426 -0.02167328 -0.008456622 -0.023520509 0.031734657 0.03127863 0.023991209
-0.011826188 0.0033129754 0.023473362 -0.013423788 -0.023827532 0.03315521 0.01612803 -0.0007863854
0.034032833 -0.018491238 -0.021787444 0.015958345 0.010388268 -0.03159526 0.00211605 -0.028304718
0.023678528 0.011867818 -0.029145895 -0.026780069 0.031476263 0.018439528 0.003208216 0.014135854
0.007952658 0.029587958 0.023671236 -0.029935328 -0.010732837 -0.022215951 -0.014404822 0.018582696
-0.005325886 -0.013834012 0.020519415 -0.0064986106 0.022582676 0.0045057493 -0.028157044 -0.0026286459
0.0344926 0.007181351 0.017065577 -0.006260461 0.0044834055 -0.0067913984 0.0022485266 -0.0073751076
-0.014154927 -0.0035225842 0.031728808 0.0044255354 -0.03249704 -0.025677273 0.022498649 -0.029559273
0.015319033 0.014695623 0.00796199 0.0040161707 0.009198758 -0.031378627 0.003628845 -0.027080068
-0.022828102 0.016977802 0.028908808 -0.02857634 0.0048818933 -0.033899773 -0.021950575 0.024454756
-0.034380466 -0.017665008 -0.011894943 0.013234275 -0.002772296 -0.0277465 -0.018686749 0.007344794
0.0026532006 -0.034446977 0.019151732 -0.02926712 -0.0177447 -0.023647582 -0.04335138 -0.022317387
-0.011783354 0.028360289 0.031677473 0.01478698 0.020849975 0.007080781 -0.024810463 0.03414295
-0.032114107 -0.015228533 -0.027715584 0.004656296 -0.030143475 0.013240218 0.007745191 0.0023960487
-0.024098808 0.0027440067 0.012601762 -0.042527903 -0.026491124 -0.027510544 -0.03350715 0.016703648
0.03550755 -0.012183069 0.023722421 -0.01001138 0.017714288 0.0039800867 0.0023366027 -0.015525781
0.015675213 -0.009786291 0.015419142 -0.033178054 0.024232917 0.022201782 -0.033870306 0.01219896
-0.03360261 0.028939344 0.015835172 -0.0004913379 0.009307951 -0.014317915 -0.013436976 -0.019719128
0.026909856 0.0027204312 0.03776123 0.045889292 0.015945742 0.03730638 0.008497442 0.036392123
0.0015125474 0.026957141 0.015535358 -0.021454776 -0.010722343 0.03224603 0.013085167 0.024896417
-0.008073432 0.020519294 0.0030279087 -0.028789349 -0.013851884 0.00424066 -0.0141787585 -0.018373342
-0.003620093 -0.00068202574 0.0037920915 -0.03507364 0.002546356 0.00034428053 0.048897352 0.043747663
0.025893457 0.0782998 0.07279509 0.044899642 -0.011386227 -0.008914633 -0.0054449076 -0.015598104
-0.017987922 0.026334353 -0.016426137 -0.018736053 0.016148534 -0.0010127306 0.032495 0.005872631
0.0033137836 -0.029188016 0.01767514 -0.00056430127 -0.052693695 0.0015649048 -0.039410453 -0.008598784
0.014575609 0.024634464 0.032742735 0.04728029 0.062675685 0.07759167 0.071104124 0.053246465
-0.0012433643 0.004917596 -0.021761233 -0.019316087 0.005394489 -0.0070160786 0.0028838953 -0.035539523
-0.017476236 0.0014912909 0.032433424 0.0094866725 -0.004256531 -0.040130265 -0.017225925 -0.03859917
-0.04892732 -0.014801038 0.027185697 -0.01644557 0.03336361 0.055587508 0.049757898 -0.003937895
0.026553404 0.03445629 0.006737269 0.08221992 0.08446037 0.017222054 -0.0068023726 0.027597861
0.0030232854 -0.00555297 -0.012892399 0.0050579114 -0.0064416523 -0.024117395 -0.004551587 -0.028173398

linear.bias f4 [10]
00000000: c301 04bd 6abd dc3d bd35 4fba 7177 82bc
00000010: 29c7 0d3d d5ba c03c 9a5d 9abb 9890 e23c
00000020: 05fe 8bbd a6d6 11bd
-0.032228243 0.10778315 -0.0007904431 -0.015926095 0.034613762 0.023526588 -0.004710865 0.027656838
-0.0683556 -0.035605095
